…
ne, tracker=botsort.yaml, save_dir=/Users/tuan/Downloads/web_components_classify/runs/classify/train3
train: /Users/tuan/Downloads/web_components_classify/data/train... found 358 images in 3 classes ✅ 
val: /Users/tuan/Downloads/web_components_classify/data/val... found 104 images in 3 classes ✅ 
test: /Users/tuan/Downloads/web_components_classify/data/test... found 53 images in 3 classes ✅ 
Overriding model.yaml nc=1000 with nc=3

                   from  n    params  module                                       arguments                     
  0                  -1  1       464  ultralytics.nn.modules.conv.Conv             [3, 16, 3, 2]                 
  1                  -1  1      4672  ultralytics.nn.modules.conv.Conv             [16, 32, 3, 2]                
  2                  -1  1      7360  ultralytics.nn.modules.block.C2f             [32, 32, 1, True]             
  3                  -1  1     18560  ultralytics.nn.modules.conv.Conv             [32, 64, 3, 2]                
  4                  -1  2     49664  ultralytics.nn.modules.block.C2f             [64, 64, 2, True]             
  5                  -1  1     73984  ultralytics.nn.modules.conv.Conv             [64, 128, 3, 2]               
  6                  -1  2    197632  ultralytics.nn.modules.block.C2f             [128, 128, 2, True]           
  7                  -1  1    295424  ultralytics.nn.modules.conv.Conv             [128, 256, 3, 2]              
  8                  -1  1    460288  ultralytics.nn.modules.block.C2f             [256, 256, 1, True]           
  9                  -1  1    334083  ultralytics.nn.modules.head.Classify         [256, 3]                      
YOLOv8n-cls summary: 99 layers, 1442131 parameters, 1442131 gradients, 3.4 GFLOPs
Transferred 156/158 items from pretrained weights
train: Scanning /Users/tuan/Downloads/web_components_classify/data/train... 358 images, 0 corrupt: 100%|██████████| 358/358 [00:00<?, ?it/s]
val: Scanning /Users/tuan/Downloads/web_components_classify/data/val... 104 images, 0 corrupt: 100%|██████████| 104/104 [00:00<?, ?it/s]
…
